…
train: torch.Size([3001, 250, 2, 12]) torch.Size([3001, 250, 2, 12]) torch.Size([3001, 250, 2, 12])
val: torch.Size([672, 250, 2, 12]) torch.Size([672, 250, 2, 12]) torch.Size([672, 250, 2, 12])
test: torch.Size([672, 250, 2, 12]) torch.Size([672, 250, 2, 12]) torch.Size([672, 250, 2, 12])
TemporalPositionalEncoding max_len: 12
h_index: [0, 1, 2, 3, 4, 5, 6, 7, 8, 9, 10, 11]
en_lookup_index: [0, 1, 2, 3, 4, 5, 6, 7, 8, 9, 10, 11]
EncoderDecoder(
  (encoder): Encoder(
    (layers): ModuleList(
      (0): EncoderLayer(
        (self_attn): MultiHeadAttention(
          (linears): ModuleList(
            (0): Linear(in_features=64, out_features=64, bias=True)
            (1): Linear(in_features=64, out_features=64, bias=True)
            (2): Linear(in_features=64, out_features=64, bias=True)
            (3): Linear(in_features=64, out_features=64, bias=True)
          )
          (dropout): Dropout(p=0.0, inplace=False)
        )
        (feed_forward_gcn): spatialAttentionScaledGCN2(
          (Theta): Linear(in_features=64, out_features=64, bias=False)
          (SAt): Spatial_Attention_layer(
            (dropout): Dropout(p=0.0, inplace=False)
          )
          (Gate): Linear(in_features=64, out_features=1, bias=False)
        )
        (tcn): TCN(
          (filter_convs): Conv2d(64, 64, kernel_size=(1, 3), stride=(1, 1), padding=(0, 1))
          (gate_convs): Conv1d(64, 64, kernel_size=(1, 3), stride=(1,), padding=(0, 1))
        )
        (tcn2): TCN(
          (filter_convs): Conv2d(64, 64, kernel_size=(1, 3), stride=(1, 1), padding=(0, 1))
          (gate_convs): Conv1d(64, 64, kernel_size=(1, 3), stride=(1,), padding=(0, 1))
        )
        (sublayer): ModuleList(
          (0): SublayerConnection(
            (dropout): Dropout(p=0.0, inplace=False)
            (norm): LayerNorm((64,), eps=1e-05, elementwise_affine=True)
          )
          (1): SublayerConnection(
            (dropout): Dropout(p=0.0, inplace=False)
            (norm): LayerNorm((64,), eps=1e-05, elementwise_affine=True)
          )
          (2): SublayerConnection(
            (dropout): Dropout(p=0.0, inplace=False)
            (norm): LayerNorm((64,), eps=1e-05, elementwise_affine=True)
          )
          (3): SublayerConnection(
            (dropout): Dropout(p=0.0, inplace=False)
            (norm): LayerNorm((64,), eps=1e-05, elementwise_affine=True)
          )
          (4): SublayerConnection(
            (dropout): Dropout(p=0.0, inplace=False)
            (norm): LayerNorm((64,), eps=1e-05, elementwise_affine=True)
          )
          (5): SublayerConnection(
            (dropout): Dropout(p=0.0, inplace=False)
            (norm): LayerNorm((64,), eps=1e-05, elementwise_affine=True)
          )
        )
        (sublayer2): SublayerConnection2(
          (dropout): Dropout(p=0.0, inplace=False)
          (norm): LayerNorm((64,), eps=1e-05, elementwise_affine=True)
          (norm2): LayerNorm((64,), eps=1e-05, elementwise_affine=True)
        )
      )
      (1): EncoderLayer(
        (self_attn): MultiHeadAttention(
          (linears): ModuleList(
            (0): Linear(in_features=64, out_features=64, bias=True)
            (1): Linear(in_features=64, out_features=64, bias=True)
            (2): Linear(in_features=64, out_features=64, bias=True)
            (3): Linear(in_features=64, out_features=64, bias=True)
          )
          (dropout): Dropout(p=0.0, inplace=False)
        )
        (feed_forward_gcn): spatialAttentionScaledGCN2(
          (Theta): Linear(in_features=64, out_features=64, bias=False)
          (SAt): Spatial_Attention_layer(
            (dropout): Dropout(p=0.0, inplace=False)
          )
          (Gate): Linear(in_features=64, out_features=1, bias=False)
        )
        (tcn): TCN(
          (filter_convs): Conv2d(64, 64, kernel_size=(1, 3), stride=(1, 1), padding=(0, 1))
          (gate_convs): Conv1d(64, 64, kernel_size=(1, 3), stride=(1,), padding=(0, 1))
        )
        (tcn2): TCN(
          (filter_convs): Conv2d(64, 64, kernel_size=(1, 3), stride=(1, 1), padding=(0, 1))
          (gate_convs): Conv1d(64, 64, kernel_size=(1, 3), stride=(1,), padding=(0, 1))
        )
        (sublayer): ModuleList(
          (0): SublayerConnection(
            (dropout): Dropout(p=0.0, inplace=False)
            (norm): LayerNorm((64,), eps=1e-05, elementwise_affine=True)
          )
          (1): SublayerConnection(
            (dropout): Dropout(p=0.0, inplace=False)
            (norm): LayerNorm((64,), eps=1e-05, elementwise_affine=True)
          )
          (2): SublayerConnection(
            (dropout): Dropout(p=0.0, inplace=False)
            (norm): LayerNorm((64,), eps=1e-05, elementwise_affine=True)
          )
          (3): SublayerConnection(
            (dropout): Dropout(p=0.0, inplace=False)
            (norm): LayerNorm((64,), eps=1e-05, elementwise_affine=True)
          )
          (4): SublayerConnection(
            (dropout): Dropout(p=0.0, inplace=False)
            (norm): LayerNorm((64,), eps=1e-05, elementwise_affine=True)
          )
          (5): SublayerConnection(
            (dropout): Dropout(p=0.0, inplace=False)
            (norm): LayerNorm((64,), eps=1e-05, elementwise_affine=True)
          )
        )
        (sublayer2): SublayerConnection2(
          (dropout): Dropout(p=0.0, inplace=False)
          (norm): LayerNorm((64,), eps=1e-05, elementwise_affine=True)
          (norm2): LayerNorm((64,), eps=1e-05, elementwise_affine=True)
        )
      )
      (2): EncoderLayer(
        (self_attn): MultiHeadAttention(
          (linears): ModuleList(
            (0): Linear(in_features=64, out_features=64, bias=True)
            (1): Linear(in_features=64, out_features=64, bias=True)
            (2): Linear(in_features=64, out_features=64, bias=True)
            (3): Linear(in_features=64, out_features=64, bias=True)
          )
          (dropout): Dropout(p=0.0, inplace=False)
        )
        (feed_forward_gcn): spatialAttentionScaledGCN2(
          (Theta): Linear(in_features=64, out_features=64, bias=False)
          (SAt): Spatial_Attention_layer(
            (dropout): Dropout(p=0.0, inplace=False)
          )
          (Gate): Linear(in_features=64, out_features=1, bias=False)
        )
        (tcn): TCN(
          (filter_convs): Conv2d(64, 64, kernel_size=(1, 3), stride=(1, 1), padding=(0, 1))
          (gate_convs): Conv1d(64, 64, kernel_size=(1, 3), stride=(1,), padding=(0, 1))
        )
        (tcn2): TCN(
          (filter_convs): Conv2d(64, 64, kernel_size=(1, 3), stride=(1, 1), padding=(0, 1))
          (gate_convs): Conv1d(64, 64, kernel_size=(1, 3), stride=(1,), padding=(0, 1))
        )
        (sublayer): ModuleList(
          (0): SublayerConnection(
            (dropout): Dropout(p=0.0, inplace=False)
            (norm): LayerNorm((64,), eps=1e-05, elementwise_affine=True)
          )
          (1): SublayerConnection(
            (dropout): Dropout(p=0.0, inplace=False)
            (norm): LayerNorm((64,), eps=1e-05, elementwise_affine=True)
          )
          (2): SublayerConnection(
            (dropout): Dropout(p=0.0, inplace=False)
            (norm): LayerNorm((64,), eps=1e-05, elementwise_affine=True)
          )
          (3): SublayerConnection(
            (dropout): Dropout(p=0.0, inplace=False)
            (norm): LayerNorm((64,), eps=1e-05, elementwise_affine=True)
          )
          (4): SublayerConnection(
            (dropout): Dropout(p=0.0, inplace=False)
            (norm): LayerNorm((64,), eps=1e-05, elementwise_affine=True)
          )
          (5): SublayerConnection(
            (dropout): Dropout(p=0.0, inplace=False)
            (norm): LayerNorm((64,), eps=1e-05, elementwise_affine=True)
          )
        )
        (sublayer2): SublayerConnection2(
          (dropout): Dropout(p=0.0, inplace=False)
          (norm): LayerNorm((64,), eps=1e-05, elementwise_affine=True)
          (norm2): LayerNorm((64,), eps=1e-05, elementwise_affine=True)
        )
      )
      (3): EncoderLayer(
        (self_attn): MultiHeadAttention(
          (linears): ModuleList(
            (0): Linear(in_features=64, out_features=64, bias=True)
            (1): Linear(in_features=64, out_features=64, bias=True)
            (2): Linear(in_features=64, out_features=64, bias=True)
            (3): Linear(in_features=64, out_features=64, bias=True)
          )
          (dropout): Dropout(p=0.0, inplace=False)
        )
        (feed_forward_gcn): spatialAttentionScaledGCN2(
          (Theta): Linear(in_features=64, out_features=64, bias=False)
          (SAt): Spatial_Attention_layer(
            (dropout): Dropout(p=0.0, inplace=False)
          )
          (Gate): Linear(in_features=64, out_features=1, bias=False)
        )
        (tcn): TCN(
          (filter_convs): Conv2d(64, 64, kernel_size=(1, 3), stride=(1, 1), padding=(0, 1))
          (gate_convs): Conv1d(64, 64, kernel_size=(1, 3), stride=(1,), padding=(0, 1))
        )
        (tcn2): TCN(
          (filter_convs): Conv2d(64, 64, kernel_size=(1, 3), stride=(1, 1), padding=(0, 1))
          (gate_convs): Conv1d(64, 64, kernel_size=(1, 3), stride=(1,), padding=(0, 1))
        )
        (sublayer): ModuleList(
          (0): SublayerConnection(
            (dropout): Dropout(p=0.0, inplace=False)
            (norm): LayerNorm((64,), eps=1e-05, elementwise_affine=True)
          )
          (1): SublayerConnection(
            (dropout): Dropout(p=0.0, inplace=False)
            (norm): LayerNorm((64,), eps=1e-05, elementwise_affine=True)
          )
          (2): SublayerConnection(
            (dropout): Dropout(p=0.0, inplace=False)
            (norm): LayerNorm((64,), eps=1e-05, elementwise_affine=True)
          )
          (3): SublayerConnection(
            (dropout): Dropout(p=0.0, inplace=False)
            (norm): LayerNorm((64,), eps=1e-05, elementwise_affine=True)
          )
          (4): SublayerConnection(
            (dropout): Dropout(p=0.0, inplace=False)
            (norm): LayerNorm((64,), eps=1e-05, elementwise_affine=True)
          )
          (5): SublayerConnection(
            (dropout): Dropout(p=0.0, inplace=False)
            (norm): LayerNorm((64,), eps=1e-05, elementwise_affine=True)
          )
        )
        (sublayer2): SublayerConnection2(
          (dropout): Dropout(p=0.0, inplace=False)
          (norm): LayerNorm((64,), eps=1e-05, elementwise_affine=True)
          (norm2): LayerNorm((64,), eps=1e-05, elementwise_affine=True)
        )
      )
    )
    (norm): LayerNorm((64,), eps=1e-05, elementwise_affine=True)
    (norm2): LayerNorm((64,), eps=1e-05, elementwise_affine=True)
  )
  (decoder): Decoder(
    (layers): ModuleList(
      (0): DecoderLayer(
        (self_attn): MultiHeadAttention(
          (linears): ModuleList(
            (0): Linear(in_features=64, out_features=64, bias=True)
            (1): Linear(in_features=64, out_features=64, bias=True)
            (2): Linear(in_features=64, out_features=64, bias=True)
            (3): Linear(in_features=64, out_features=64, bias=True)
          )
          (dropout): Dropout(p=0.0, inplace=False)
        )
        (src_attn): MultiHeadAttention(
          (linears): ModuleList(
            (0): Linear(in_features=64, out_features=64, bias=True)
            (1): Linear(in_features=64, out_features=64, bias=True)
            (2): Linear(in_features=64, out_features=64, bias=True)
            (3): Linear(in_features=64, out_features=64, bias=True)
          )
          (dropout): Dropout(p=0.0, inplace=False)
        )
        (feed_forward_gcn): spatialAttentionScaledGCN2(
          (Theta): Linear(in_features=64, out_features=64, bias=False)
          (SAt): Spatial_Attention_layer(
            (dropout): Dropout(p=0.0, inplace=False)
          )
          (Gate): Linear(in_features=64, out_features=1, bias=False)
        )
        (tcn): TCN(
          (filter_convs): Conv2d(64, 64, kernel_size=(1, 3), stride=(1, 1), padding=(0, 1))
          (gate_convs): Conv1d(64, 64, kernel_size=(1, 3), stride=(1,), padding=(0, 1))
        )
        (sublayer): ModuleList(
          (0): SublayerConnection(
            (dropout): Dropout(p=0.0, inplace=False)
            (norm): LayerNorm((64,), eps=1e-05, elementwise_affine=True)
          )
          (1): SublayerConnection(
            (dropout): Dropout(p=0.0, inplace=False)
            (norm): LayerNorm((64,), eps=1e-05, elementwise_affine=True)
          )
          (2): SublayerConnection(
            (dropout): Dropout(p=0.0, inplace=False)
            (norm): LayerNorm((64,), eps=1e-05, elementwise_affine=True)
          )
          (3): SublayerConnection(
            (dropout): Dropout(p=0.0, inplace=False)
            (norm): LayerNorm((64,), eps=1e-05, elementwise_affine=True)
          )
          (4): SublayerConnection(
            (dropout): Dropout(p=0.0, inplace=False)
            (norm): LayerNorm((64,), eps=1e-05, elementwise_affine=True)
          )
          (5): SublayerConnection(
            (dropout): Dropout(p=0.0, inplace=False)
            (norm): LayerNorm((64,), eps=1e-05, elementwise_affine=True)
          )
          (6): SublayerConnection(
            (dropout): Dropout(p=0.0, inplace=False)
            (norm): LayerNorm((64,), eps=1e-05, elementwise_affine=True)
          )
          (7): SublayerConnection(
            (dropout): Dropout(p=0.0, inplace=False)
            (norm): LayerNorm((64,), eps=1e-05, elementwise_affine=True)
          )
        )
        (sublayer2): SublayerConnection2(
          (dropout): Dropout(p=0.0, inplace=False)
          (norm): LayerNorm((64,), eps=1e-05, elementwise_affine=True)
          (norm2): LayerNorm((64,), eps=1e-05, elementwise_affine=True)
        )
      )
      (1): DecoderLayer(
        (self_attn): MultiHeadAttention(
          (linears): ModuleList(
            (0): Linear(in_features=64, out_features=64, bias=True)
            (1): Linear(in_features=64, out_features=64, bias=True)
            (2): Linear(in_features=64, out_features=64, bias=True)
            (3): Linear(in_features=64, out_features=64, bias=True)
          )
          (dropout): Dropout(p=0.0, inplace=False)
        )
        (src_attn): MultiHeadAttention(
          (linears): ModuleList(
            (0): Linear(in_features=64, out_features=64, bias=True)
            (1): Linear(in_features=64, out_features=64, bias=True)
            (2): Linear(in_features=64, out_features=64, bias=True)
            (3): Linear(in_features=64, out_features=64, bias=True)
          )
          (dropout): Dropout(p=0.0, inplace=False)
        )
        (feed_forward_gcn): spatialAttentionScaledGCN2(
          (Theta): Linear(in_features=64, out_features=64, bias=False)
          (SAt): Spatial_Attention_layer(
            (dropout): Dropout(p=0.0, inplace=False)
          )
          (Gate): Linear(in_features=64, out_features=1, bias=False)
        )
        (tcn): TCN(
          (filter_convs): Conv2d(64, 64, kernel_size=(1, 3), stride=(1, 1), padding=(0, 1))
          (gate_convs): Conv1d(64, 64, kernel_size=(1, 3), stride=(1,), padding=(0, 1))
        )
        (sublayer): ModuleList(
          (0): SublayerConnection(
            (dropout): Dropout(p=0.0, inplace=False)
            (norm): LayerNorm((64,), eps=1e-05, elementwise_affine=True)
          )
          (1): SublayerConnection(
            (dropout): Dropout(p=0.0, inplace=False)
            (norm): LayerNorm((64,), eps=1e-05, elementwise_affine=True)
          )
          (2): SublayerConnection(
            (dropout): Dropout(p=0.0, inplace=False)
            (norm): LayerNorm((64,), eps=1e-05, elementwise_affine=True)
          )
          (3): SublayerConnection(
            (dropout): Dropout(p=0.0, inplace=False)
            (norm): LayerNorm((64,), eps=1e-05, elementwise_affine=True)
          )
          (4): SublayerConnection(
            (dropout): Dropout(p=0.0, inplace=False)
            (norm): LayerNorm((64,), eps=1e-05, elementwise_affine=True)
          )
          (5): SublayerConnection(
            (dropout): Dropout(p=0.0, inplace=False)
            (norm): LayerNorm((64,), eps=1e-05, elementwise_affine=True)
          )
          (6): SublayerConnection(
            (dropout): Dropout(p=0.0, inplace=False)
            (norm): LayerNorm((64,), eps=1e-05, elementwise_affine=True)
          )
          (7): SublayerConnection(
            (dropout): Dropout(p=0.0, inplace=False)
            (norm): LayerNorm((64,), eps=1e-05, elementwise_affine=True)
          )
        )
        (sublayer2): SublayerConnection2(
          (dropout): Dropout(p=0.0, inplace=False)
          (norm): LayerNorm((64,), eps=1e-05, elementwise_affine=True)
          (norm2): LayerNorm((64,), eps=1e-05, elementwise_affine=True)
        )
      )
      (2): DecoderLayer(
        (self_attn): MultiHeadAttention(
          (linears): ModuleList(
            (0): Linear(in_features=64, out_features=64, bias=True)
            (1): Linear(in_features=64, out_features=64, bias=True)
            (2): Linear(in_features=64, out_features=64, bias=True)
            (3): Linear(in_features=64, out_features=64, bias=True)
          )
          (dropout): Dropout(p=0.0, inplace=False)
        )
        (src_attn): MultiHeadAttention(
          (linears): ModuleList(
            (0): Linear(in_features=64, out_features=64, bias=True)
            (1): Linear(in_features=64, out_features=64, bias=True)
            (2): Linear(in_features=64, out_features=64, bias=True)
            (3): Linear(in_features=64, out_features=64, bias=True)
          )
          (dropout): Dropout(p=0.0, inplace=False)
        )
        (feed_forward_gcn): spatialAttentionScaledGCN2(
          (Theta): Linear(in_features=64, out_features=64, bias=False)
          (SAt): Spatial_Attention_layer(
            (dropout): Dropout(p=0.0, inplace=False)
          )
          (Gate): Linear(in_features=64, out_features=1, bias=False)
        )
        (tcn): TCN(
          (filter_convs): Conv2d(64, 64, kernel_size=(1, 3), stride=(1, 1), padding=(0, 1))
          (gate_convs): Conv1d(64, 64, kernel_size=(1, 3), stride=(1,), padding=(0, 1))
        )
        (sublayer): ModuleList(
          (0): SublayerConnection(
            (dropout): Dropout(p=0.0, inplace=False)
            (norm): LayerNorm((64,), eps=1e-05, elementwise_affine=True)
          )
          (1): SublayerConnection(
            (dropout): Dropout(p=0.0, inplace=False)
            (norm): LayerNorm((64,), eps=1e-05, elementwise_affine=True)
          )
          (2): SublayerConnection(
            (dropout): Dropout(p=0.0, inplace=False)
            (norm): LayerNorm((64,), eps=1e-05, elementwise_affine=True)
          )
          (3): SublayerConnection(
            (dropout): Dropout(p=0.0, inplace=False)
            (norm): LayerNorm((64,), eps=1e-05, elementwise_affine=True)
          )
          (4): SublayerConnection(
            (dropout): Dropout(p=0.0, inplace=False)
            (norm): LayerNorm((64,), eps=1e-05, elementwise_affine=True)
          )
          (5): SublayerConnection(
            (dropout): Dropout(p=0.0, inplace=False)
            (norm): LayerNorm((64,), eps=1e-05, elementwise_affine=True)
          )
          (6): SublayerConnection(
            (dropout): Dropout(p=0.0, inplace=False)
            (norm): LayerNorm((64,), eps=1e-05, elementwise_affine=True)
          )
          (7): SublayerConnection(
            (dropout): Dropout(p=0.0, inplace=False)
            (norm): LayerNorm((64,), eps=1e-05, elementwise_affine=True)
          )
        )
        (sublayer2): SublayerConnection2(
          (dropout): Dropout(p=0.0, inplace=False)
          (norm): LayerNorm((64,), eps=1e-05, elementwise_affine=True)
          (norm2): LayerNorm((64,), eps=1e-05, elementwise_affine=True)
        )
      )
      (3): DecoderLayer(
        (self_attn): MultiHeadAttention(
          (linears): ModuleList(
            (0): Linear(in_features=64, out_features=64, bias=True)
            (1): Linear(in_features=64, out_features=64, bias=True)
            (2): Linear(in_features=64, out_features=64, bias=True)
            (3): Linear(in_features=64, out_features=64, bias=True)
          )
          (dropout): Dropout(p=0.0, inplace=False)
        )
        (src_attn): MultiHeadAttention(
          (linears): ModuleList(
            (0): Linear(in_features=64, out_features=64, bias=True)
            (1): Linear(in_features=64, out_features=64, bias=True)
            (2): Linear(in_features=64, out_features=64, bias=True)
            (3): Linear(in_features=64, out_features=64, bias=True)
          )
          (dropout): Dropout(p=0.0, inplace=False)
        )
        (feed_forward_gcn): spatialAttentionScaledGCN2(
          (Theta): Linear(in_features=64, out_features=64, bias=False)
          (SAt): Spatial_Attention_layer(
            (dropout): Dropout(p=0.0, inplace=False)
          )
          (Gate): Linear(in_features=64, out_features=1, bias=False)
        )
        (tcn): TCN(
          (filter_convs): Conv2d(64, 64, kernel_size=(1, 3), stride=(1, 1), padding=(0, 1))
          (gate_convs): Conv1d(64, 64, kernel_size=(1, 3), stride=(1,), padding=(0, 1))
        )
        (sublayer): ModuleList(
          (0): SublayerConnection(
            (dropout): Dropout(p=0.0, inplace=False)
            (norm): LayerNorm((64,), eps=1e-05, elementwise_affine=True)
          )
          (1): SublayerConnection(
            (dropout): Dropout(p=0.0, inplace=False)
            (norm): LayerNorm((64,), eps=1e-05, elementwise_affine=True)
          )
          (2): SublayerConnection(
            (dropout): Dropout(p=0.0, inplace=False)
            (norm): LayerNorm((64,), eps=1e-05, elementwise_affine=True)
          )
          (3): SublayerConnection(
            (dropout): Dropout(p=0.0, inplace=False)
            (norm): LayerNorm((64,), eps=1e-05, elementwise_affine=True)
          )
          (4): SublayerConnection(
            (dropout): Dropout(p=0.0, inplace=False)
            (norm): LayerNorm((64,), eps=1e-05, elementwise_affine=True)
          )
          (5): SublayerConnection(
            (dropout): Dropout(p=0.0, inplace=False)
            (norm): LayerNorm((64,), eps=1e-05, elementwise_affine=True)
          )
          (6): SublayerConnection(
            (dropout): Dropout(p=0.0, inplace=False)
            (norm): LayerNorm((64,), eps=1e-05, elementwise_affine=True)
          )
          (7): SublayerConnection(
            (dropout): Dropout(p=0.0, inplace=False)
            (norm): LayerNorm((64,), eps=1e-05, elementwise_affine=True)
          )
        )
        (sublayer2): SublayerConnection2(
          (dropout): Dropout(p=0.0, inplace=False)
          (norm): LayerNorm((64,), eps=1e-05, elementwise_affine=True)
          (norm2): LayerNorm((64,), eps=1e-05, elementwise_affine=True)
        )
      )
    )
    (norm): LayerNorm((64,), eps=1e-05, elementwise_affine=True)
    (norm2): LayerNorm((64,), eps=1e-05, elementwise_affine=True)
  )
  (decoder2): Decoder(
    (layers): ModuleList(
      (0): DecoderLayer(
        (self_attn): MultiHeadAttention(
          (linears): ModuleList(
            (0): Linear(in_features=64, out_features=64, bias=True)
            (1): Linear(in_features=64, out_features=64, bias=True)
            (2): Linear(in_features=64, out_features=64, bias=True)
            (3): Linear(in_features=64, out_features=64, bias=True)
          )
          (dropout): Dropout(p=0.0, inplace=False)
        )
        (src_attn): MultiHeadAttention(
          (linears): ModuleList(
            (0): Linear(in_features=64, out_features=64, bias=True)
            (1): Linear(in_features=64, out_features=64, bias=True)
            (2): Linear(in_features=64, out_features=64, bias=True)
            (3): Linear(in_features=64, out_features=64, bias=True)
          )
          (dropout): Dropout(p=0.0, inplace=False)
        )
        (feed_forward_gcn): spatialAttentionScaledGCN2(
          (Theta): Linear(in_features=64, out_features=64, bias=False)
          (SAt): Spatial_Attention_layer(
            (dropout): Dropout(p=0.0, inplace=False)
          )
          (Gate): Linear(in_features=64, out_features=1, bias=False)
        )
        (tcn): TCN(
          (filter_convs): Conv2d(64, 64, kernel_size=(1, 3), stride=(1, 1), padding=(0, 1))
          (gate_convs): Conv1d(64, 64, kernel_size=(1, 3), stride=(1,), padding=(0, 1))
        )
        (sublayer): ModuleList(
          (0): SublayerConnection(
            (dropout): Dropout(p=0.0, inplace=False)
            (norm): LayerNorm((64,), eps=1e-05, elementwise_affine=True)
          )
          (1): SublayerConnection(
            (dropout): Dropout(p=0.0, inplace=False)
            (norm): LayerNorm((64,), eps=1e-05, elementwise_affine=True)
          )
          (2): SublayerConnection(
            (dropout): Dropout(p=0.0, inplace=False)
            (norm): LayerNorm((64,), eps=1e-05, elementwise_affine=True)
          )
          (3): SublayerConnection(
            (dropout): Dropout(p=0.0, inplace=False)
            (norm): LayerNorm((64,), eps=1e-05, elementwise_affine=True)
          )
          (4): SublayerConnection(
            (dropout): Dropout(p=0.0, inplace=False)
            (norm): LayerNorm((64,), eps=1e-05, elementwise_affine=True)
          )
          (5): SublayerConnection(
            (dropout): Dropout(p=0.0, inplace=False)
            (norm): LayerNorm((64,), eps=1e-05, elementwise_affine=True)
          )
          (6): SublayerConnection(
            (dropout): Dropout(p=0.0, inplace=False)
            (norm): LayerNorm((64,), eps=1e-05, elementwise_affine=True)
          )
          (7): SublayerConnection(
            (dropout): Dropout(p=0.0, inplace=False)
            (norm): LayerNorm((64,), eps=1e-05, elementwise_affine=True)
          )
        )
        (sublayer2): SublayerConnection2(
          (dropout): Dropout(p=0.0, inplace=False)
          (norm): LayerNorm((64,), eps=1e-05, elementwise_affine=True)
          (norm2): LayerNorm((64,), eps=1e-05, elementwise_affine=True)
        )
      )
      (1): DecoderLayer(
        (self_attn): MultiHeadAttention(
          (linears): ModuleList(
            (0): Linear(in_features=64, out_features=64, bias=True)
            (1): Linear(in_features=64, out_features=64, bias=True)
            (2): Linear(in_features=64, out_features=64, bias=True)
            (3): Linear(in_features=64, out_features=64, bias=True)
          )
          (dropout): Dropout(p=0.0, inplace=False)
        )
        (src_attn): MultiHeadAttention(
          (linears): ModuleList(
            (0): Linear(in_features=64, out_features=64, bias=True)
            (1): Linear(in_features=64, out_features=64, bias=True)
            (2): Linear(in_features=64, out_features=64, bias=True)
            (3): Linear(in_features=64, out_features=64, bias=True)
          )
          (dropout): Dropout(p=0.0, inplace=False)
        )
        (feed_forward_gcn): spatialAttentionScaledGCN2(
          (Theta): Linear(in_features=64, out_features=64, bias=False)
          (SAt): Spatial_Attention_layer(
            (dropout): Dropout(p=0.0, inplace=False)
          )
          (Gate): Linear(in_features=64, out_features=1, bias=False)
        )
        (tcn): TCN(
          (filter_convs): Conv2d(64, 64, kernel_size=(1, 3), stride=(1, 1), padding=(0, 1))
          (gate_convs): Conv1d(64, 64, kernel_size=(1, 3), stride=(1,), padding=(0, 1))
        )
        (sublayer): ModuleList(
          (0): SublayerConnection(
            (dropout): Dropout(p=0.0, inplace=False)
            (norm): LayerNorm((64,), eps=1e-05, elementwise_affine=True)
          )
          (1): SublayerConnection(
            (dropout): Dropout(p=0.0, inplace=False)
            (norm): LayerNorm((64,), eps=1e-05, elementwise_affine=True)
          )
          (2): SublayerConnection(
            (dropout): Dropout(p=0.0, inplace=False)
            (norm): LayerNorm((64,), eps=1e-05, elementwise_affine=True)
          )
          (3): SublayerConnection(
            (dropout): Dropout(p=0.0, inplace=False)
            (norm): LayerNorm((64,), eps=1e-05, elementwise_affine=True)
          )
          (4): SublayerConnection(
            (dropout): Dropout(p=0.0, inplace=False)
            (norm): LayerNorm((64,), eps=1e-05, elementwise_affine=True)
          )
          (5): SublayerConnection(
            (dropout): Dropout(p=0.0, inplace=False)
            (norm): LayerNorm((64,), eps=1e-05, elementwise_affine=True)
          )
          (6): SublayerConnection(
            (dropout): Dropout(p=0.0, inplace=False)
            (norm): LayerNorm((64,), eps=1e-05, elementwise_affine=True)
          )
          (7): SublayerConnection(
            (dropout): Dropout(p=0.0, inplace=False)
            (norm): LayerNorm((64,), eps=1e-05, elementwise_affine=True)
          )
        )
        (sublayer2): SublayerConnection2(
          (dropout): Dropout(p=0.0, inplace=False)
          (norm): LayerNorm((64,), eps=1e-05, elementwise_affine=True)
          (norm2): LayerNorm((64,), eps=1e-05, elementwise_affine=True)
        )
      )
      (2): DecoderLayer(
        (self_attn): MultiHeadAttention(
          (linears): ModuleList(
            (0): Linear(in_features=64, out_features=64, bias=True)
            (1): Linear(in_features=64, out_features=64, bias=True)
            (2): Linear(in_features=64, out_features=64, bias=True)
            (3): Linear(in_features=64, out_features=64, bias=True)
          )
          (dropout): Dropout(p=0.0, inplace=False)
        )
        (src_attn): MultiHeadAttention(
          (linears): ModuleList(
            (0): Linear(in_features=64, out_features=64, bias=True)
            (1): Linear(in_features=64, out_features=64, bias=True)
            (2): Linear(in_features=64, out_features=64, bias=True)
            (3): Linear(in_features=64, out_features=64, bias=True)
          )
          (dropout): Dropout(p=0.0, inplace=False)
        )
        (feed_forward_gcn): spatialAttentionScaledGCN2(
          (Theta): Linear(in_features=64, out_features=64, bias=False)
          (SAt): Spatial_Attention_layer(
            (dropout): Dropout(p=0.0, inplace=False)
          )
          (Gate): Linear(in_features=64, out_features=1, bias=False)
        )
        (tcn): TCN(
          (filter_convs): Conv2d(64, 64, kernel_size=(1, 3), stride=(1, 1), padding=(0, 1))
          (gate_convs): Conv1d(64, 64, kernel_size=(1, 3), stride=(1,), padding=(0, 1))
        )
        (sublayer): ModuleList(
          (0): SublayerConnection(
            (dropout): Dropout(p=0.0, inplace=False)
            (norm): LayerNorm((64,), eps=1e-05, elementwise_affine=True)
          )
          (1): SublayerConnection(
            (dropout): Dropout(p=0.0, inplace=False)
            (norm): LayerNorm((64,), eps=1e-05, elementwise_affine=True)
          )
          (2): SublayerConnection(
            (dropout): Dropout(p=0.0, inplace=False)
            (norm): LayerNorm((64,), eps=1e-05, elementwise_affine=True)
          )
          (3): SublayerConnection(
            (dropout): Dropout(p=0.0, inplace=False)
            (norm): LayerNorm((64,), eps=1e-05, elementwise_affine=True)
          )
          (4): SublayerConnection(
            (dropout): Dropout(p=0.0, inplace=False)
            (norm): LayerNorm((64,), eps=1e-05, elementwise_affine=True)
          )
          (5): SublayerConnection(
            (dropout): Dropout(p=0.0, inplace=False)
            (norm): LayerNorm((64,), eps=1e-05, elementwise_affine=True)
          )
          (6): SublayerConnection(
            (dropout): Dropout(p=0.0, inplace=False)
            (norm): LayerNorm((64,), eps=1e-05, elementwise_affine=True)
          )
          (7): SublayerConnection(
            (dropout): Dropout(p=0.0, inplace=False)
            (norm): LayerNorm((64,), eps=1e-05, elementwise_affine=True)
          )
        )
        (sublayer2): SublayerConnection2(
          (dropout): Dropout(p=0.0, inplace=False)
          (norm): LayerNorm((64,), eps=1e-05, elementwise_affine=True)
          (norm2): LayerNorm((64,), eps=1e-05, elementwise_affine=True)
        )
      )
      (3): DecoderLayer(
        (self_attn): MultiHeadAttention(
          (linears): ModuleList(
            (0): Linear(in_features=64, out_features=64, bias=True)
            (1): Linear(in_features=64, out_features=64, bias=True)
            (2): Linear(in_features=64, out_features=64, bias=True)
            (3): Linear(in_features=64, out_features=64, bias=True)
          )
          (dropout): Dropout(p=0.0, inplace=False)
        )
        (src_attn): MultiHeadAttention(
          (linears): ModuleList(
            (0): Linear(in_features=64, out_features=64, bias=True)
            (1): Linear(in_features=64, out_features=64, bias=True)
            (2): Linear(in_features=64, out_features=64, bias=True)
            (3): Linear(in_features=64, out_features=64, bias=True)
          )
          (dropout): Dropout(p=0.0, inplace=False)
        )
        (feed_forward_gcn): spatialAttentionScaledGCN2(
          (Theta): Linear(in_features=64, out_features=64, bias=False)
          (SAt): Spatial_Attention_layer(
            (dropout): Dropout(p=0.0, inplace=False)
          )
          (Gate): Linear(in_features=64, out_features=1, bias=False)
        )
        (tcn): TCN(
          (filter_convs): Conv2d(64, 64, kernel_size=(1, 3), stride=(1, 1), padding=(0, 1))
          (gate_convs): Conv1d(64, 64, kernel_size=(1, 3), stride=(1,), padding=(0, 1))
        )
        (sublayer): ModuleList(
          (0): SublayerConnection(
            (dropout): Dropout(p=0.0, inplace=False)
            (norm): LayerNorm((64,), eps=1e-05, elementwise_affine=True)
          )
          (1): SublayerConnection(
            (dropout): Dropout(p=0.0, inplace=False)
            (norm): LayerNorm((64,), eps=1e-05, elementwise_affine=True)
          )
          (2): SublayerConnection(
            (dropout): Dropout(p=0.0, inplace=False)
            (norm): LayerNorm((64,), eps=1e-05, elementwise_affine=True)
          )
          (3): SublayerConnection(
            (dropout): Dropout(p=0.0, inplace=False)
            (norm): LayerNorm((64,), eps=1e-05, elementwise_affine=True)
          )
          (4): SublayerConnection(
            (dropout): Dropout(p=0.0, inplace=False)
            (norm): LayerNorm((64,), eps=1e-05, elementwise_affine=True)
          )
          (5): SublayerConnection(
            (dropout): Dropout(p=0.0, inplace=False)
            (norm): LayerNorm((64,), eps=1e-05, elementwise_affine=True)
          )
          (6): SublayerConnection(
            (dropout): Dropout(p=0.0, inplace=False)
            (norm): LayerNorm((64,), eps=1e-05, elementwise_affine=True)
          )
          (7): SublayerConnection(
            (dropout): Dropout(p=0.0, inplace=False)
            (norm): LayerNorm((64,), eps=1e-05, elementwise_affine=True)
          )
        )
        (sublayer2): SublayerConnection2(
          (dropout): Dropout(p=0.0, inplace=False)
          (norm): LayerNorm((64,), eps=1e-05, elementwise_affine=True)
          (norm2): LayerNorm((64,), eps=1e-05, elementwise_affine=True)
        )
      )
    )
    (norm): LayerNorm((64,), eps=1e-05, elementwise_affine=True)
    (norm2): LayerNorm((64,), eps=1e-05, elementwise_affine=True)
  )
  (src_embed): Sequential(
    (0): Linear(in_features=1, out_features=64, bias=True)
    (1): TemporalPositionalEncoding(
      (dropout): Dropout(p=0.0, inplace=False)
    )
    (2): SpatialPositionalEncoding(
      (dropout): Dropout(p=0.0, inplace=False)
      (embedding): Embedding(250, 64)
    )
  )
  (src_embed2): Sequential(
    (0): Linear(in_features=1, out_features=64, bias=True)
    (1): TemporalPositionalEncoding(
      (dropout): Dropout(p=0.0, inplace=False)
    )
    (2): SpatialPositionalEncoding(
      (dropout): Dropout(p=0.0, inplace=False)
      (embedding): Embedding(250, 64)
    )
  )
  (trg_embed): Sequential(
    (0): Linear(in_features=1, out_features=64, bias=True)
    (1): TemporalPositionalEncoding(
      (dropout): Dropout(p=0.0, inplace=False)
    )
    (2): SpatialPositionalEncoding(
      (dropout): Dropout(p=0.0, inplace=False)
      (embedding): Embedding(250, 64)
    )
  )
  (trg_embed2): Sequential(
    (0): Linear(in_features=1, out_features=64, bias=True)
    (1): TemporalPositionalEncoding(
      (dropout): Dropout(p=0.0, inplace=False)
    )
    (2): SpatialPositionalEncoding(
      (dropout): Dropout(p=0.0, inplace=False)
      (embedding): Embedding(250, 64)
    )
  )
  (prediction_generator): Linear(in_features=64, out_features=1, bias=True)
  (prediction_generator2): Linear(in_features=64, out_features=1, bias=True)
)
create params directory experiments/bike/MAE_ASTGNN_h1d0w0_layer4_head8_dm64_channel1_dir2_drop0.00_1.00e-03TcontextScaledSAtSE0TEcross_ed_gts_epochs0
Net's state_dict:
encoder.layers.0.self_attn.linears.0.weight 	 torch.Size([64, 64])
encoder.layers.0.self_attn.linears.0.bias 	 torch.Size([64])
encoder.layers.0.self_attn.linears.1.weight 	 torch.Size([64, 64])
…
